…
=======] - 47s 25ms/step - loss: 0.0534 - accuracy: 0.9835 Epoch 3/5 1875/1875 [==============================] - 48s 26ms/step - loss: 0.0401 - accuracy: 0.9876 Epoch 4/5 1875/1875 [==============================] - 49s 26ms/step - loss: 0.0312 - accuracy: 0.9897 Epoch 5/5 1875/1875 [==============================] - 50s 27ms/step - loss: 0.0256 - accuracy: 0.9919 model.summary() Model: &quot;sequential&quot; _________________________________________________________________ Layer (type) Output Shape Param # ================================================================= reshape_1 (Reshape) (None, 28, 28, 1) 0 conv2d_2 (Conv2D) (None, 26, 26, 32) 320 conv2d_3 (Conv2D) (None, 24, 24, 64) 18496 max_pooling2d_1 (MaxPooling (None, 12, 12, 64) 0 2D) dropout_1 (Dropout) (None, 12, 12, 64) 0 flatten_1 (Flatten) (None, 9216) 0 dense_1 (Dense) (None, 10) 92170 ================================================================= Total params: 110,986 Trainable params: 110,986 Non-trainable params: 0 _________________________________________________________________ 评估模型test_loss, test_acc = model.evaluate(test_images, test_labels)print(&quot;Test accuracy:&quot;, test_acc) 313/313 [==============================] - 2s 7ms/step - loss: 0.0310 - accuracy: 0.9
…
